examples/pytorch_example/dlwpt_code/data/p1ch2/mnist/mnist.pth (torch, 89871 bytes, 8 tensors)

conv1.weight f4 [10, 1, 5, 5]
000000 64 df 0e bd 64 fb a5 3e 38 a7 33 3e f5 6f 04 3e
       -0.03488101 0.32418358 0.17544258 0.12933333
000010 d3 65 7b 3e 55 55 9c 3e 74 fc f6 3d 8e 21 27 3d
       0.24550562 0.30533853 0.1205987 0.040803485
000020 56 ab 50 be ae 1c 33 be 98 59 01 3e 47 e3 33 3e
       -0.2037786 -0.17491409 0.12631834 0.17567168
000030 31 b8 4b 3c 34 7e 65 bd e3 c6 db 3b 55 df 9f 3e
       0.012434051 -0.05602856 0.0067070588 0.31225076
000040 f6 9f f9 bc 05 b3 1c be c7 21 1b be ca 15 66 be
       -0.030471783 -0.15302666 -0.15149604 -0.2246925
000050 09 8f 24 3e ef 20 58 3d 00 ca ae 3d d1 03 60 bd
       0.16070189 0.052765783 0.08534622 -0.05469114
000060 41 7d 13 be 4d 4f 06 be b5 a0 b6 3d 09 27 79 be
       -0.1440325 -0.13116188 0.08917371 -0.24331297
000070 b5 02 92 be 4f a6 26 be c5 0c fb 3d 45 f9 cd 3d
       -0.2851769 -0.16274379 0.12258295 0.1005731
000080 68 41 76 3e 9d 64 96 3c f5 63 8a 3e dc 3e 6a 3d
       0.24048388 0.018358523 0.27029386 0.057188854
000090 b9 1a 48 3e bf e2 fd 3e 56 ef b7 3e c1 21 81 3e
       0.19541444 0.49587056 0.35924786 0.25221065
0000a0 27 09 86 be eb 7a f8 3c 8f 95 55 3d a9 8a d1 3d
       -0.26178858 0.03033205 0.052144583 0.102315255
0000b0 0c b8 aa 3d 49 81 b4 be 1d 59 d9 be 66 d8 04 bf
       0.083358854 -0.35254887 -0.424508 -0.518927
0000c0 af 25 c6 be 6d 3d 63 be 75 de 01 3e 1a 5f 1b be
       -0.38700625 -0.22191401 0.12682517 -0.15172997
0000d0 a4 9a 82 be 2d 16 d5 be 54 53 a8 be ae 45 1e 3e
       -0.25508606 -0.4161848 -0.32876074 0.15456268
0000e0 25 38 b1 bb f8 7b 52 bc f4 15 b0 be dd 7c db be
       -0.0054083043 -0.012846939 -0.3439175 -0.428687
0000f0 24 a3 b4 3d db 5f b5 3e 81 61 a1 3e fd d0 97 3e
       0.08820179 0.35424694 0.31519702 0.29651633
000100 8f 43 73 bd 0a ff 1c 3e d5 0f e7 3e 98 64 03 3f
       -0.0593906 0.15331665 0.45129266 0.5132537
000110 7f 50 2e 3e 40 56 2d 3e d8 d0 96 be ef 91 9b be
       0.17022894 0.16927433 -0.2945621 -0.30384776
000120 8f ee bd 3b dd e8 93 3e 89 73 82 3e b3 91 5b be
       0.0057962607 0.28888598 0.2547877 -0.21442299
000130 62 59 c7 3c 33 25 dc bc f5 17 3a 3e 65 22 3a bd
       0.024334613 -0.026873207 0.18173201 -0.045442957
000140 dd 65 98 be 84 03 80 be 89 12 9f 3c f6 85 b6 3e
       -0.29765216 -0.25002682 0.019418018 0.3564908
000150 05 f4 17 3e 4c c3 8d bd 92 16 aa 3e 61 20 ea 3e
       0.1483918 -0.069220155 0.33220345 0.45727828
000160 f7 4e 73 3e 48 8a a1 3d 6b 3c 20 3e 47 2d ab 3e
       0.23760591 0.07887703 0.15648048 0.3343298
000170 bc 93 28 3e ba 58 62 bd ec 0b 5c bd 80 79 6d 3d
       0.16462606 -0.055260397 -0.053722307 0.0579772
000180 61 76 7b be ab d7 b3 be 6b f2 88 be 7a 11 d0 be
       -0.24556877 -0.3512548 -0.2674745 -0.40638334
000190 e0 db 06 3e 0d 98 a9 bd ba 64 0d be dc 74 49 bd
       0.13169813 -0.082809545 -0.13807955 -0.04918371
0001a0 11 29 2a 3e ae d2 5d bd c4 30 11 be c9 f8 4b be
       0.16617228 -0.054155998 -0.14178759 -0.19919123
0001b0 f3 ce 2e be 75 c1 45 be d7 87 ae bd 11 93 03 be
       -0.17071132 -0.19312079 -0.08522003 -0.1284907
0001c0 cf d1 77 be 1a ce 6a be 23 3d 17 bd b7 3a ab bd
       -0.2420113 -0.22930184 -0.03692354 -0.08360808
0001d0 f1 72 f3 bd a9 4e 20 3e 02 40 a5 bd 67 09 47 be
       -0.11887158 0.15655006 -0.08068849 -0.1943718
0001e0 9a f3 fc bd f7 ce 45 be ce df 39 3e b2 0e 37 3e
       -0.12351151 -0.19317232 0.18151781 0.178767
0001f0 a2 13 6d 3d 9a da ac 3d 66 ea d3 3c c5 31 8e 3e
       0.05788005 0.084401324 0.025868606 0.27772346
000200 32 44 cc 3e 9d 55 21 3e b1 5a ac bc 20 e9 35 be
       0.3989578 0.15755315 -0.021039339 -0.17764711
000210 b7 79 b0 bd b9 53 05 3e 77 28 75 3e 90 fd ae bc
       -0.08616965 0.13020219 0.23941217 -0.021361142
000220 00 ae 21 be 1c ec d0 bd ba eb 75 3e ca f3 99 3e
       -0.15789032 -0.10201284 0.24015704 0.3006881
000230 30 4b a5 be fa 45 58 be d9 81 41 be dd 3a 62 3e
       -0.32283926 -0.21120444 -0.18897189 0.22092767
000240 78 5e b2 3e d9 62 85 be c5 47 97 bd 47 e8 89 bd
       0.348377 -0.26051977 -0.07386736 -0.067337565
000250 ad 23 fb 3d 65 e4 6e 3e 27 82 85 be ff fd be be
       0.12262664 0.23329313 -0.2607586 -0.3730316
000260 37 46 86 be 25 0e a1 be b6 6c 57 bd d1 2e bc be
       -0.26225445 -0.31456104 -0.05259391 -0.36754468
000270 66 00 f6 bd 06 84 05 be 36 7c 81 3e d1 b9 8b 3e
       -0.12011795 -0.13038644 0.25290078 0.27290204
000280 be e2 ae be fe 13 06 be ff 14 84 3d 4c 72 58 3e
       -0.34157366 -0.13093564 0.06449317 0.21137351
000290 6f 23 3a 3e 41 dc 9e be da 4f d9 3d 20 1d 8f 3e
       0.1817758 -0.31027415 0.106109336 0.27951908
0002a0 20 94 bc 3e 61 2c 23 bd 56 c6 96 be b2 b0 02 be
       0.3683176 -0.039837245 -0.29448193 -0.12762716
0002b0 39 dc 9d 3e 12 68 90 3e e8 a0 4d bd ca 9b 5c bd
       0.3083208 0.282044 -0.05020228 -0.05385951
0002c0 20 ac cc bd 3a d3 88 3d 06 ac 35 be 4d 9c e3 bd
       -0.09993768 0.06680913 -0.17741403 -0.111137964
0002d0 b9 8d 12 be 31 0c 92 be 1d eb e7 be bb 14 38 bd
       -0.14311875 -0.28524926 -0.45296565 -0.044941645
0002e0 0f 4f 6f be 7b 7d 59 3e 04 b9 e7 bd fa fc 63 be
       -0.23370002 0.21239273 -0.11314586 -0.22264472
0002f0 6b d6 49 be c7 ef e9 bd 84 4d 53 bd 72 b2 ca 3e
       -0.197107 -0.11422687 -0.051587597 0.39589268
000300 1e ed 84 3e ef 8e ff 3c 32 51 d2 bd 30 06 96 3d
       0.25962156 0.031196086 -0.10269393 0.07325399
000310 c8 46 db 3c 8f e8 cd 3e 1a 2f c1 3e 4c 6d b6 3e
       0.02676715 0.4021649 0.37731248 0.35630262
000320 1e 09 0b bd 8d a1 54 be 3a bf 27 be 26 df 4c be
       -0.03394424 -0.20764752 -0.16381541 -0.20007
000330 54 ab c0 3d 44 d7 fe 3d c8 f1 48 be b9 43 02 be
       0.09407678 0.124434024 -0.19623482 -0.12721147
000340 8f 0d f0 3d b0 48 95 3e b0 a7 1c 3e 3a 4f a1 3d
       0.11721336 0.2915702 0.15298343 0.078764394
000350 e6 a1 73 3e e9 d3 b3 3e 33 10 68 3e cb b1 9b 3d
       0.23792228 0.35122612 0.2266243 0.07602271
000360 2a 7f 0c bd 67 b9 85 3e c9 fc 5e 3e 28 c9 2e 3e
       -0.03430096 0.26118013 0.21776117 0.17068923
000370 df 94 40 3e 0e 62 df 3d 60 d2 f1 bc 03 67 c7 3d
       0.1880679 0.10907374 -0.02951926 0.09736445
000380 88 e9 2a 3e e6 a2 11 be 30 41 3c be 42 72 83 be
       0.16690648 -0.14222297 -0.18384242 -0.2567311
000390 54 82 32 3e 30 72 8b bd b4 bf 96 be d0 3a a2 be
       0.17432529 -0.06808889 -0.29443133 -0.31685495
0003a0 14 ff 7b 3d 9e 20 55 3d f4 af 6e 3e 2b e8 e3 bc
       0.06152256 0.05203306 0.23309308 -0.027820667
0003b0 f9 9e 8c be 70 ba 45 be 80 f8 83 3d 59 3c 99 3e
       -0.27465037 -0.19309402 0.06443882 0.29928854
0003c0 f0 4c 70 bc f9 c5 99 be 72 5e d2 3d 2e 87 6a 3d
       -0.014666781 -0.30033854 0.1027192 0.057257824
0003d0 cd a9 be 3e 02 ca 1a be 3b 28 96 3d d6 21 11 be
       0.37238923 -0.15116122 0.07331892 -0.14173064
0003e0 f7 6c 31 3e 89 88 a7 bc
       0.17326723 -0.020450847

conv1.bias f4 [10]
000000 20 5f 92 bd 7e 1a ce bd e4 cd 48 be 5b 3a d3 bc
       -0.0714705 -0.10063647 -0.19609791 -0.025784662
000010 ba 24 0a 3e c8 39 7f be e8 16 a9 bd 6f fb cd bd
       0.13490573 -0.24924386 -0.08256322 -0.10057723
000020 56 ba 22 3d 45 a8 aa 3c
       0.039728485 0.02083219

conv2.weight f4 [20, 10, 5, 5]
000000 25 33 d5 bd 3c 05 5b bc 80 c0 96 3c 44 50 a5 bc
       -0.10410146 -0.013367947 0.018402338 -0.020179875
000010 4e 7f a8 3a a7 bb 82 bd 56 cf 16 3c a0 c5 bb bc
       0.0012855323 -0.06383448 0.009204706 -0.022921383
000020 0c 80 7e bc 5e 07 5c bd 07 ea 31 bd 22 a7 e3 bc
       -0.015533458 -0.053717963 -0.043436076 -0.027789656
000030 1b 2b d6 bd 43 47 f3 3c 34 90 a1 3d 0d af 94 bd
       -0.104574405 0.029697066 0.07888833 -0.07259951
000040 17 33 ef bc e1 eb 29 3c de 69 98 3d 3a c4 08 3e
       -0.029199166 0.010371179 0.074420676 0.13356104
000050 25 ee d7 3d 73 81 71 3d 3a cd 7a 3c 58 30 8a 3d
       0.10543469 0.058961343 0.015307719 0.06747502
000060 a4 ac 01 3e 88 e4 28 3c 3c 78 6c 3d 6a 87 e8 bb
       0.12663513 0.010308392 0.057731852 -0.0070962207
000070 9d b5 45 3d 42 48 4a bd b9 88 91 3d b2 78 9e 3d
       0.048268903 -0.049385317 0.07106156 0.077378646
000080 1e b4 fa bb 89 81 fb bb 29 6e 91 bd 6e 87 21 bd
       -0.007650866 -0.007675354 -0.071010895 -0.039435796
000090 9d d8 47 3d ed 55 8a bb 0b d0 ae bd bb a2 81 bd
       0.048790563 -0.004221669 -0.08535775 -0.063298665
0000a0 bc ca b0 3c a0 c1 85 bd f5 fd af bd 29 dc 29 be
       0.021581046 -0.06531072 -0.0859336 -0.1658789
0000b0 50 bf 19 be 34 dd ba bc 08 e6 8a bd db 2f 0e be
       -0.15014386 -0.022810556 -0.06782156 -0.13885443
0000c0 99 51 a3 bd 3f f5 13 be 8e 01 a7 bd 12 67 4f bc
       -0.07974548 -0.14449023 -0.081545934 -0.012658851
0000d0 7b 5c 37 bc 13 5b 41 bd 70 d6 bb bd f1 00 a9 3d
       -0.011191483 -0.047205996 -0.0917176 0.08252133
0000e0 a4 a9 91 3d 14 c6 82 3d cb 45 30 3d b3 ec 31 3c
       0.071124345 0.06385437 0.04303531 0.010859656
0000f0 61 cd 09 3e 1b c7 de 3d 23 b9 ff 3c 96 f0 b4 bd
       0.13457252 0.1087782 0.03121621 -0.088349506
000100 96 ca da bc 18 b0 06 3c 41 57 a4 3d 27 ca b0 bd
       -0.026707929 0.008220695 0.08024455 -0.086323075
000110 d0 8b 1e be 65 4d b7 bd ee b0 76 3d 9b 28 ce bd
       -0.15483022 -0.08950309 0.060227327 -0.10066339
000120 69 e7 fd bd ad af 59 bd 70 db 5b bb 15 f9 41 bd
       -0.123976536 -0.053146053 -0.0033547543 -0.047356684
000130 d6 ca d2 bb d6 0b 22 3c 13 7b 0c be d3 ed 8b bd
       -0.0064328713 0.009890517 -0.13718824 -0.06832471
000140 10 54 9d bd c3 2e 0b bd db 09 8d bd 51 58 e4 bd
       -0.07682049 -0.033980142 -0.068866454 -0.111496575
000150 7e 2b e2 bc 6e ff 18 3d 8a db 08 bd 70 1d 34 3c
       -0.02760863 0.03735297 -0.033412494 0.010993347
000160 e5 fd b7 bc 3d ec 8f 3d 55 45 ae 3d d6 61 e4 3c
       -0.022459934 0.07027481 0.08509318 0.027878683
000170 9a 69 15 3e c5 7a ec 3d 60 29 a0 3d 69 90 06 3e
       0.14591065 0.11546854 0.07820392 0.13141026
000180 6e 4a 46 3e cf c2 82 3d 0a 61 a9 bd 76 d4 69 bd
       0.1936433 0.06384813 -0.08270462 -0.057087384
000190 09 fc 64 bc 5c 0f c2 3c 25 4d 6c 3b 81 4f 2d 3c
       -0.0139761055 0.023688965 0.0036056724 0.010578037
0001a0 62 48 0b ba 37 f0 b0 bb 3a 3b 3b bd 10 e8 66 bd
       -0.0005313215 -0.0053997296 -0.04571078 -0.056373656
0001b0 17 40 d2 3c f2 53 64 ba 32 39 43 bd ee 34 d7 3b
       0.025665326 -0.00087100186 -0.047661968 0.006567589
0001c0 bd 8c a0 bb 89 14 3f bc 5c 24 0a bc f3 30 8d bb
       -0.00489959 -0.011662611 -0.00843152 -0.0043088137
0001d0 7e 24 95 3c ae 90 ae bc 89 1f da 3b 28 7b 28 3c
       0.018205877 -0.021309223 0.0066565913 0.010283269
0001e0 0d a6 85 bd 72 f4 31 bd e8 13 1f bd 02 c7 f1 3c
       -0.06525812 -0.04344601 -0.038837343 0.02951384
0001f0 15 0e 70 3d 6a 75 05 bd fd 60 68 3c 2e 9a cf bc
       0.05860718 -0.032582678 0.01418328 -0.025342073
000200 8c 7a 8f 3d 4e 29 e4 bb 73 83 9f 3b ab 95 a8 bc
       0.07005796 -0.0069629317 0.004867965 -0.02057918
000210 e4 d4 07 3d 75 4a 67 3a a0 46 8c 3b ab 52 45 bc
       0.033162013 0.00088230456 0.00428088 -0.012043635
000220 1f c6 70 3d 97 5d 21 3c 24 43 77 3b fc 94 cd bc
       0.058782693 0.009848974 0.0037729228 -0.025095455
000230 92 89 08 bc 64 53 8c 3d ee ee f1 3b 4c 93 2a 3b
       -0.008333581 0.06851843 0.007383219 0.0026027737
000240 13 96 90 bd d0 55 a1 bc 9e 11 09 3d 33 8c 03 bc
       -0.070598744 -0.019694239 0.033464067 -0.008029032
000250 15 4d c2 3d 5d 51 a9 bd d7 07 32 3d 29 ef 7a 3b
       0.094873585 -0.08267472 0.043464508 0.0038289523
000260 2b 75 b5 bb b4 9a 7a 3d 07 69 40 bc d4 bf 6f bd
       -0.005537649 0.061182693 -0.0117437905 -0.05853255
000270 6a a3 80 bd 15 1a 61 bd 11 c1 ec bd 29 4c 3f bd
       -0.06281169 -0.054956514 -0.11560262 -0.04670349
000280 c8 96 ba bd c2 bf 09 be 14 97 87 bd a0 da 12 bd
       -0.091107905 -0.13452056 -0.06620613 -0.03585303
000290 4f 1f 37 3c 36 f8 30 bd 0b 8b 81 bd 02 17 ea 3b
       0.011176898 -0.043205462 -0.063253485 0.007143856
0002a0 44 8a 17 3e 09 db 38 3e 5a 0c 85 3d d9 2f 55 3d
       0.14798838 0.18052305 0.064964965 0.052047584
0002b0 0c 6b 0d 3e 66 a5 26 3e 9c d3 2d 3c b1 da 44 3d
       0.13810366 0.16274032 0.010609534 0.048060123
0002c0 70 92 a1 3b 1e 1b ee 3c 41 7b 85 3d ec 9c bd bd
       0.004930787 0.029065665 0.065176494 -0.09258446
0002d0 5d 66 83 3d 88 bd 31 3d 7d 96 e6 ba 63 dc 2c 3b
       0.064160086 0.04339364 -0.0017592456 0.0026376478
0002e0 a3 72 90 bc 0d c2 4f 3d 1d 85 83 bd a4 02 4f bd
       -0.017632788 0.05072217 -0.06421874 -0.050539628
0002f0 fa 04 8a bd 15 6a bb bd ab 89 d6 3b 89 20 9c bd
       -0.067392305 -0.09151093 0.006547173 -0.07623393
000300 29 7d c0 bd ad 78 23 bd 80 bd 37 bd 54 11 dd 3c
       -0.093988724 -0.039910007 -0.044858456 0.026985802
000310 57 c8 03 be c4 5f 55 bd d6 7b d2 39 21 e5 23 3d
       -0.12869392 -0.052093282 0.00040146586 0.040013436
000320 4f 2e 18 bd 8e 73 6b 3c 0d 22 16 bd 59 63 12 3d
       -0.03715354 0.014370812 -0.036653567 0.035739277
000330 d8 ff ae bd 88 9c 89 bd 2a 45 a1 bd ab 04 69 3d
       -0.08544892 -0.06719309 -0.0787452 0.056889217
000340 06 7d e7 bd eb 63 65 bd e4 98 1d bd f2 f0 3b bd
       -0.11303143 -0.056003492 -0.038475886 -0.04588408
000350 13 53 1d 3d 34 53 09 bd 40 63 dc 3d 39 2f 3a 3c
       0.038409304 -0.033526614 0.10761118 0.011363798
000360 d9 0a df 3d 1a e0 e5 3c 8e a8 bb 3d c7 e6 38 bd
       0.10890741 0.028060962 0.09163009 -0.04514196
000370 6a b1 bc 3d 6c f0 24 3e db 95 ea 3d d1 59 b1 3d
       0.092135265 0.16107339 0.11454364 0.08659709
000380 87 57 48 bc 04 1d 77 3d b9 13 99 bc 32 e4 1a 3d
       -0.012227899 0.060330406 -0.018686162 0.03781528
000390 57 29 93 bb b2 3d 96 3d 38 95 0f 3b bc 58 ff bc
       -0.004491012 0.07335986 0.002190901 -0.031170242
0003a0 d8 17 e8 bc d8 39 25 bb 58 b4 7b 3d e5 7d 14 bd
       -0.028331682 -0.002521148 0.061451286 -0.036252875
0003b0 ee 59 17 bc 98 90 7f 3b 3b 3e c0 bc 1e c2 ab 3a
       -0.0092377495 0.0038996097 -0.023467174 0.0013104116
0003c0 70 4b 00 bd 3e 9b 7c 3c 16 d3 2a bd a6 5d 1b 3c
       -0.031321943 0.015417872 -0.041705213 0.009482777
0003d0 43 17 06 bd 69 a6 39 3d 7f 7a 94 bc cf 7c e1 3c
       -0.032737028 0.045324717 -0.018124817 0.027525334
0003e0 5c 12 a8 3d ff 87 32 bd c1 4d 3b 3c 80 8f 66 bb
       0.08206627 -0.043586727 0.011432112 -0.0035180748
0003f0 ad 4d 34 bd e1 73 9e bc 1a 36 b9 bd 14 70 96 3c
       -0.04401939 -0.019342365 -0.09043522 0.01836399

conv2.bias f4 [20]
000000 33 b7 30 bc 4f 6a 3a bd 29 45 12 bd 76 25 57 bd
       -0.010785866 -0.04551154 -0.035710488 -0.05252596
000010 54 44 26 bd a7 dc f2 3c a2 35 e1 bc e0 7e 6a bc
       -0.040592507 0.02964623 -0.027491394 -0.014312476
000020 8a 88 23 3d d8 69 9a bd 73 61 9b 3a 27 b7 3c bc
       0.039925136 -0.07539719 0.0011854604 -0.011518276
000030 42 90 a2 3c 83 32 74 3d d7 16 13 3d e0 52 ef 36
       0.019844178 0.059618484 0.035910454 7.132403e-06
000040 97 ab 7e bc a5 c1 3e 3c 8e 90 95 bd b7 d3 6b 3d
       -0.01554384 0.011642848 -0.07302962 0.057574954

fc1.weight f4 [50, 320]
000000 d4 34 d6 bd 91 8e 58 bc 07 2e dc 3d 8d c1 9f 3d
       -0.10459295 -0.013217584 0.107509665 0.07800589
000010 e5 59 0d bd 67 fa 23 bd 6b 96 26 3c c7 3d 2a 3c
       -0.03450956 -0.040033724 0.010167698 0.010390705
000020 15 c4 02 3d d0 54 a4 3d 22 04 65 bd d1 b1 f9 bb
       0.03192528 0.08023989 -0.055912144 -0.0076200743
000030 39 62 6f bd be 39 cb bd 0e ed 1d 3d c3 2e 08 3b
       -0.05844328 -0.09923123 0.03855615 0.0020779825
000040 34 d3 38 bd 08 52 7d 3d a2 2b 59 3d 25 3a 43 bc
       -0.045123294 0.06184581 0.053020127 -0.011915718
000050 3a ae 54 bd f3 25 82 bc 51 d3 df bb fb 1e 87 3d
       -0.051923968 -0.015887236 -0.006830611 0.06597706
000060 14 20 5a bd 12 fb 8b 3d 7c 57 60 ba 21 4b ce bd
       -0.05325325 0.06834997 -0.0008557958 -0.100729235
000070 91 22 64 bd 0d 93 54 3d b8 f8 8a 3c 23 0f a8 3d
       -0.055697028 0.05189805 0.016964301 0.08206012
000080 59 22 69 bc 69 5f 87 3d f4 63 f0 3d 3c fc c0 3d
       -0.0142293805 0.06609995 0.117378145 0.0942311
000090 75 ee c6 bc a1 04 97 bd 48 cb 4b bd fb 90 80 bc
       -0.024283627 -0.0737393 -0.04975441 -0.015694132
0000a0 2b ba b5 ba 0f f4 58 bc f1 e5 1c 3b d4 dc a6 bd
       -0.0013864686 -0.013241782 0.0023940767 -0.08147588
0000b0 81 15 1c bc e2 b3 48 bd e9 18 a6 bb 2e 85 1e 3d
       -0.009526611 -0.048999675 -0.0050688875 0.03870123
0000c0 6b 64 ed bc 09 28 b7 3a 6d e5 a9 3d 80 47 44 3d
       -0.028978547 0.0013973723 0.082957126 0.04791975
0000d0 df bc bd bc 48 12 c3 bd 29 ec 0b 3d cb e9 04 3e
       -0.02316135 -0.09524971 0.034160767 0.1297981
0000e0 f2 b0 f1 bc b1 ee 58 3b 73 13 0a bd 5a 3f ed bd
       -0.02950332 0.0033101256 -0.033709954 -0.11584349
0000f0 c0 89 15 3d 66 62 96 3d 6b 8e cf 3c 27 7f d0 3c
       0.03650832 0.07342987 0.025336465 0.025451256
000100 1e 46 dd bc 41 91 4a bc 8d 9d 80 bb 36 e0 0e 3e
       -0.027010974 -0.012363733 -0.0039250315 0.13952717
000110 b1 12 24 3c 45 71 82 bd 8d 9c 53 3d b3 f7 b5 bb
       0.010014222 -0.06369261 0.05166297 -0.0055532097
000120 46 64 b7 3d 37 38 12 bb 9e f4 92 bc a5 b0 8e bb
       0.089546725 -0.0022311339 -0.017938908 -0.0043545538
000130 45 3b 94 3c 30 7d f7 3b 00 35 33 bc 32 87 c2 3c
       0.018094668 0.0075527653 -0.010937929 0.023746107
000140 85 9f a0 3c 1f 8f f3 bc 7b fc a4 3c cd be b8 3c
       0.019607315 -0.029731331 0.020139923 0.022551918
000150 1c a5 8c bd ac 2a 94 bd f2 02 0f 3d a3 39 13 3d
       -0.068674296 -0.072347015 0.03491492 0.03594364
000160 84 1a ab 3d 0c aa b0 3c 59 2b e7 3c 89 9e 2c bd
       0.08354667 0.02156546 0.028218912 -0.04214338
000170 88 ae 08 3d f1 dc 1a 3c c0 ad 34 3c 03 11 98 bc
       0.03336957 0.009452091 0.011027753 -0.0185628
000180 2f 81 7a 3d 65 29 02 bc 56 a0 88 3d 52 8e 99 bd
       0.061158355 -0.00794444 0.06671207 -0.074978486
000190 18 01 49 3e 89 e0 14 3c 88 e1 fd bc dd 81 05 be
       0.19629323 0.0090867365 -0.03099133 -0.1303782
0001a0 79 45 b5 3d 5c 37 bb bd 35 7f 80 3b 3f b2 22 bd
       0.088511415 -0.09141418 0.0039214143 -0.03972077
0001b0 37 58 e8 3c 5e 1b d9 3c c6 ea df bc 58 72 9f bd
       0.028362377 0.026502308 -0.027333628 -0.07785481
0001c0 2f 5c 0e 3c 05 1a 21 bc 27 ca ab 3c 03 8a 95 bd
       0.0086889705 -0.009832864 0.020970417 -0.07301714
0001d0 61 4c ad 3b e8 21 13 3d 40 4b 28 bc 74 93 2e 3c
       0.005288646 0.035921007 -0.010271847 0.010655273
0001e0 e4 5d 86 3a 1d 48 45 bc aa 4c 86 bd 2d 9b 8a 3d
       0.001025137 -0.012041119 -0.06557591 0.06767879
0001f0 72 c7 29 3d 1f 3e 65 bb ab 70 a4 bc 34 79 6e 3b
       0.04144997 -0.0034979654 -0.020073256 0.003638816
000200 33 f8 19 3d b5 e2 c9 bc 7a a8 b7 bd e2 12 88 3c
       0.037590217 -0.024644235 -0.08967681 0.016610567
000210 87 55 5a ba 1c 9c a4 bd 69 4c 94 3d 83 04 6d 3b
       -0.00083287846 -0.08037588 0.072411366 0.003616602
000220 03 bc 95 bd b2 40 8a bd e4 e7 ba 3d 3f 90 64 b9
       -0.07311251 -0.06750621 0.09126261 -0.0002179751
000230 d6 96 3c 3d 2c 26 1c 3d d1 00 d9 3c a3 a3 a1 3c
       0.046042286 0.03812234 0.026489647 0.019731348
000240 c9 8c d0 3b 77 eb 91 bd e9 34 94 bc a9 2e 4c bb
       0.006364439 -0.071249895 -0.018091636 -0.0031155741
000250 75 8f 56 bc 14 2d 63 bb 81 de bd bc f7 e3 10 3e
       -0.013095726 -0.003466432 -0.023177387 0.14149462
000260 db 66 a2 bc 27 39 24 3d 30 b0 04 bc c1 92 2a 3d
       -0.019824436 0.040093567 -0.008098647 0.04164386
000270 ba 2e 7f bd 57 ac 8a bd f3 60 52 3c 18 86 34 3d
       -0.06230042 -0.067711525 0.012840497 0.044073194
000280 8e bf 85 3d 56 ab f9 bc 12 a4 53 bd 2c 74 97 bd
       0.06530677 -0.030477207 -0.05167014 -0.07395205
000290 91 ef 7b 3d 87 fd 94 bd c1 60 83 bc 19 5d 83 3d
       0.061507765 -0.07274919 -0.016037347 0.06414241
0002a0 29 3c 30 bb a0 a4 80 bc af 0e 53 3d 23 bf 29 3d
       -0.0026891327 -0.0157035 0.051527675 0.041442048
0002b0 f8 28 a9 bc 0c 55 58 3d d2 a1 6d bd 2b 60 1a bd
       -0.020649418 0.052815482 -0.058015652 -0.03768937
0002c0 de 35 9e 3d f5 d7 00 bc 88 05 25 bd 5b dc cc 3c
       0.07725118 -0.007863988 -0.040288478 0.025007417
0002d0 37 78 4f 3d f8 7b 89 bc 0b 77 d9 bb 36 22 2a bc
       0.050651755 -0.016782746 -0.0066365055 -0.010384133
0002e0 1a ee 5d bd 88 32 3f bd 02 ca 6a bd 4b 65 8d bd
       -0.05418215 -0.04667905 -0.057321556 -0.06904086
0002f0 97 36 74 3d 8a d4 15 bd a2 45 57 bd 24 2d cd 3c
       0.059622373 -0.036579646 -0.05255664 0.025045939
000300 d2 ba e1 bc 4b 61 0f bd c1 2a 2a 3d 50 94 a7 3a
       -0.027554903 -0.035004895 0.04154468 0.001278529
000310 6b c7 ca 3c 96 a6 9b 3d c5 9a a4 bd 81 9b 66 bd
       0.024753293 0.07600133 -0.080373324 -0.056300644
000320 22 2b bc 3c 43 d4 16 3d 92 4e 1c bd 06 e7 0b bd
       0.022969786 0.036823522 -0.038160868 -0.034155868
000330 9c 38 bd bc 11 48 45 bc 4e 1c b1 3c 1b cc 56 bc
       -0.023098283 -0.012041108 0.021619942 -0.013110186
000340 0d 94 64 3d 3a d9 32 bd a3 cc d2 bd 69 07 98 bd
       0.055805255 -0.043664195 -0.102929376 -0.074232884
000350 11 49 88 bc 2e 04 62 39 99 92 24 3d 14 9b da 3d
       -0.016636403 0.00021554597 0.04017887 0.1067411
000360 2b 91 c9 bc dd 3d a1 bc f4 43 c6 3d fd 08 35 bc
       -0.024605354 -0.019682819 0.0968093 -0.011049506
000370 02 ce e0 ba de 24 90 3c 91 94 29 bb 5d 87 80 bd
       -0.0017151239 0.017595705 -0.0025875906 -0.062758185
000380 69 38 1f bd 64 85 e9 3d e3 77 91 3d ca dc d9 3c
       -0.038872156 0.11402395 0.07102945 0.026594538
000390 3e 15 10 bd f2 e4 4a bb c2 0a 37 bd 1f 9e 0e 3d
       -0.035176508 -0.0030959216 -0.044687994 0.034818765
0003a0 82 75 a8 3c 23 96 39 bd 77 0a 1e 3b 3c f8 e5 bd
       0.020563845 -0.045309197 0.0024115124 -0.112289876
0003b0 9f 6c ea 3c c1 13 3a bd b4 3a 19 3d 65 ff 5a 3d
       0.028616248 -0.045428995 0.0374095 0.05346622
0003c0 fe f2 58 3d 11 5a 4b bd f0 4c d9 3c fc 9f b8 3d
       0.05296611 -0.04964644 0.026525944 0.090148896
0003d0 6a 87 d3 3c d2 eb 29 bc 20 00 af 3c 06 1a ef bd
       0.025821406 -0.010371165 0.021362364 -0.116748855
0003e0 89 8f 18 3d 06 bf f5 bd dc 51 dd 3c de 9e 20 bd
       0.03724626 -0.119993255 0.027016573 -0.039214008
0003f0 58 9d d3 bc dc 54 cb bc 64 f8 67 bd 76 1c a7 3d
       -0.025831863 -0.024820738 -0.056633368 0.08159725

fc1.bias f4 [50]
000000 a0 50 3e 3c 69 7c c6 3c 59 19 8e 3d 44 db 5e bc
       0.011615902 0.024229245 0.069384284 -0.013602082
000010 b3 e3 81 3c 60 be 78 3c fd 2c 22 3d 26 bf 0b bc
       0.015855646 0.015182108 0.039593685 -0.00852946
000020 19 8a bd 3c c4 0f c9 bc 7e ad 2f 3d 19 13 53 bc
       0.02313714 -0.02454365 0.042890064 -0.012882971
000030 c0 ac 42 3c 5c fc 1a ba 94 a4 84 3d 19 26 c6 3d
       0.011882007 -0.0005912238 0.06476703 0.09675235
000040 eb 3a a4 3c 4e 86 54 3b 0f 2f cf 3d eb 87 81 3c
       0.020047626 0.0032428685 0.101163976 0.015811881
000050 bc 6e 9c 3d e4 15 5e 3c 41 55 47 bc d0 40 4e 3d
       0.076383084 0.013555024 -0.012166322 0.05035478
000060 81 1a de 3c 66 68 12 3d b0 38 2f 3d 45 52 9b bc
       0.027112247 0.035744093 0.04277867 -0.018960128
000070 5e e6 11 bd ae 1b 3a 3d de c1 8c 3d a1 b4 cb 3d
       -0.035620086 0.045436554 0.06872915 0.099465616
000080 af 56 74 3d a1 4d 92 3c cc bc 42 bd 25 5b c1 3d
       0.05965298 0.017859282 -0.047543332 0.094412126
000090 cf ca 83 3d 0b e2 1b 3d 2d f7 20 3d ab c0 7e 3d
       0.06435167 0.03805737 0.039298225 0.06219546
0000a0 bf 4d 24 bd d1 68 72 3d 97 d3 b0 bc 9a d0 6d bb
       -0.040113207 0.059181992 -0.021585269 -0.0036287666
0000b0 5a 5a 82 3c 96 ce 9a bc b1 5b 8a 3d 44 e9 72 3d
       0.015912224 -0.018897336 0.0675577 0.05930449
0000c0 83 d6 87 bc f0 44 c7 3b
       -0.01658178 0.006081216

fc2.weight f4 [10, 50]
000000 e9 48 82 be ff 56 12 3e 50 73 9a bd b2 d6 5f be
       -0.2544625 0.14290999 -0.07541525 -0.21859244
000010 2c a8 6b 3e 08 0c e2 bd b0 d5 76 be 11 5a 38 bd
       0.23013371 -0.11037451 -0.24104953 -0.04500777
000020 77 19 5a 3e 97 c5 30 be 7b 46 33 3e 20 1a 2b 3e
       0.21298777 -0.17262875 0.17507355 0.16709185
000030 25 f9 99 bd 20 c2 4e 3e 57 f1 20 be 1b 1f 7d be
       -0.07518224 0.2019124 -0.15717064 -0.24718897
000040 3b dc 00 be 77 86 88 be 10 b4 ec bd c9 5d d4 3d
       -0.12584011 -0.2666509 -0.11557782 0.103694506
000050 11 20 54 be 3c 2b 4d 3e f0 4b 11 3d 0a d1 3a 3e
       -0.20715357 0.20036024 0.03547281 0.18243805
000060 2f 71 4d 3e a8 48 47 be 1e d5 0a be ff 72 29 3e
       0.20062707 -0.1946131 -0.1355786 0.16547774
000070 de c5 18 3e f3 4e 27 3e 55 5b 43 be 81 ab d5 bc
       0.1491923 0.1633871 -0.19077809 -0.026082756
000080 dc 27 4f be 50 4b bc 3d cc 71 c1 bd 50 41 fe bd
       -0.20230049 0.09194052 -0.09445533 -0.12414801
000090 da ab c5 bd 87 6f 99 be 44 96 00 bd ca 64 8c 3e
       -0.09651919 -0.299679 -0.031393304 0.27420646
0000a0 88 07 b8 3e 32 ac 33 3e 28 b3 23 be 1f 64 50 be
       0.35943246 0.17546156 -0.15986311 -0.20350693
0000b0 24 14 1f be db f9 69 3e c6 8c 38 bd 40 fe 4f be
       -0.15535027 0.22849219 -0.045056127 -0.20311832
0000c0 89 64 51 3e d6 53 8b bd a5 a6 2e 3e d7 62 55 be
       0.20448507 -0.068031 0.17055757 -0.20838486
0000d0 97 37 6a 3e fb c2 5f be 89 0b 9f bd 6f c0 ed bd
       0.22872768 -0.21851723 -0.07765872 -0.116089694
0000e0 4f f3 76 be c5 36 5a 3c 3c 4b 48 be da 8e c1 bd
       -0.24116252 0.013318722 -0.1955995 -0.09451075
0000f0 1b b8 51 be dd 9e 36 be eb 5d fc bd d9 f3 05 be
       -0.20480387 -0.17834039 -0.12322601 -0.13081302
000100 63 ab 0f be 93 d9 4e 3e cc 33 32 be 19 bd 48 be
       -0.14030223 0.20200185 -0.17402571 -0.19603385
000110 6d 37 a9 3e 67 f4 7f 3d 4a d9 50 3e f0 49 03 be
       0.330501 0.06248894 0.20395389 -0.12821174
000120 fd 3d f0 3c b2 2b 4c 3e f3 f8 02 be bb 7a 82 3e
       0.029326433 0.19938543 -0.12790279 0.2548426
000130 0a 92 5b 3e d7 27 9d 3d a1 64 b2 bd 84 79 2e be
       0.21442428 0.076736145 -0.087106 -0.17038542
000140 7e 57 c5 bd 95 1c a7 3e a1 63 c4 3d 92 47 95 3c
       -0.096358284 0.32638994 0.09589315 0.018222604
000150 91 41 69 be 14 de 70 3e 73 36 f5 3d a8 7c f4 3d
       -0.22778918 0.23522216 0.11973276 0.11937839
000160 5c a9 80 ba 04 6a 7f 3e e2 bf b9 bd 13 36 4e be
       -0.0009816098 0.24942786 -0.09069802 -0.20137815
000170 42 7d 5f be c9 62 ac bd 40 f1 74 be 65 da 41 be
       -0.21825126 -0.08417279 -0.23920155 -0.18930967
000180 77 8d 37 be 5a a0 93 bd 95 64 06 be 9f 76 8e 3e
       -0.17925058 -0.07208319 -0.13124306 0.27824876
000190 24 82 fb 3d 10 7f a5 bd 58 df 09 be ec 40 f9 3c
       0.12280682 -0.08080876 -0.13464105 0.030426465
0001a0 c0 a7 ce bd 3e 2e f3 3d 01 f9 3a be 55 42 88 bd
       -0.100905895 0.11874054 -0.1825905 -0.06653277
0001b0 f9 d4 e5 bd 5f 4c 94 3d a3 c6 3a be b1 59 1d be
       -0.11222262 0.07241129 -0.18239836 -0.15366246
0001c0 82 80 33 3e e8 90 4a 3e 89 dd eb bd af 16 2e be
       0.1752949 0.1978184 -0.11516864 -0.1700084
0001d0 c8 87 23 3d 36 92 36 be 61 99 8c 3e 30 a9 d1 3d
       0.039924413 -0.17829213 0.2746077 0.10237348
0001e0 21 14 39 3e 9a 3c 04 3e 7c bc 40 3c de f3 0e 3e
       0.18074085 0.12913743 0.011763688 0.13960215
0001f0 0f ea 38 3e b0 12 07 be 88 34 55 3e 8e eb 3f 3e
       0.18058036 -0.13190722 0.2082082 0.187422
000200 de e3 e2 3d 5d fa 67 be 30 03 66 be 83 65 34 be
       0.110786185 -0.226541 -0.22462153 -0.17616849
000210 01 b8 14 be 15 b9 d4 3d 25 d2 21 3e c2 3c 02 be
       -0.14523317 0.10386864 0.1580282 -0.1271849
000220 59 29 68 3e a7 fd a5 be a2 5a 73 3e 89 c9 01 3d
       0.22672023 -0.32420084 0.23765042 0.03168634
000230 6f 60 9b bd 50 a7 8b bd 60 a7 4c 3e aa 5d 86 3d
       -0.075867526 -0.06819022 0.19985723 0.06560834
000240 37 e9 88 3d 72 c0 3b 3e 56 67 1c be 17 4f 4f 3e
       0.06685107 0.18335131 -0.15273795 0.20245014
000250 9e 35 11 3e e8 9a 55 3e c0 9e 1c 3e 2b e5 6b 3e
       0.1418061 0.20859873 0.15294933 0.2303664
000260 54 10 2f be 78 b1 21 be e2 35 18 bd 68 05 8f 3e
       -0.17096072 -0.15790355 -0.03716076 0.27933812
000270 53 31 d3 3d 50 c0 83 3e ca 27 3c be 76 9b 05 3e
       0.10312142 0.2573266 -0.18374553 0.13047585
000280 b9 2a 12 bd f3 82 8c be 65 96 a6 3d f2 af 3f 3e
       -0.035685275 -0.27443656 0.08134154 0.18719462
000290 20 10 45 be 1b d4 b1 bd 97 43 18 be c3 dd 02 3e
       -0.19244432 -0.08683034 -0.14869533 0.12779908
0002a0 e5 17 e2 bd 78 be 25 3d 75 c9 1f be 14 bf 32 be
       -0.11039714 0.04046485 -0.15604194 -0.17455703
0002b0 ab 78 6b 3d 23 28 21 be 7b cf ff bd 21 4d 18 3e
       0.057488125 -0.15737967 -0.12490746 0.14873172
0002c0 9c 39 5f 3e 6e d3 04 be 11 8e 1d 3e 3d 4e ea 3d
       0.2179932 -0.12971279 0.15386225 0.11440704
0002d0 e3 50 47 3e 98 e1 4e be e4 ed 24 be e9 fa 14 3e
       0.1946445 -0.20203245 -0.16106373 0.1454884
0002e0 cf 31 19 be de 86 91 be 3a a5 64 3e 9b e5 22 3e
       -0.14960407 -0.28423208 0.22328654 0.159079
0002f0 f3 ee 64 bd 1e 42 72 bd e9 90 f0 bd 99 47 25 be
       -0.055891942 -0.059145086 -0.117463894 -0.16140594
000300 5f be 43 3e 92 2e 1e 3e 1a 2f 4c be d3 d1 35 3e
       0.1911559 0.15447453 -0.19939843 0.17755823
000310 cd 3f 09 bd ce 8f 6b 3e 3f 6c 0c 3d 8e 96 72 bd
       -0.03350811 0.23004076 0.03428292 -0.05922561
000320 b9 a8 c5 3d 7d fd 90 be e5 0b e2 bd e1 b6 8a 3e
       0.09651322 -0.28318396 -0.11037425 0.2709265
000330 54 85 0b be 0b e2 f5 bd cd cb 96 3d 22 29 a8 bd
       -0.1362508 -0.12006005 0.07363091 -0.082109705
000340 e0 88 52 3e 5b fe 5c be 51 69 16 3d eb 7a 8b bd
       0.20560026 -0.21581404 0.03672153 -0.06810554
000350 da 14 80 be da 2f 73 be 0f d2 87 bd 08 a8 15 bd
       -0.25015908 -0.23748723 -0.06631862 -0.0365372
000360 65 56 96 3e a0 12 18 3e c1 71 24 bd 72 70 67 be
       0.2936279 0.14850855 -0.040147547 -0.22601488
000370 b7 b4 cc bd 84 24 36 3e 42 d0 cd bd 28 6d 11 bc
       -0.09995406 0.17787367 -0.10049488 -0.0088761225
000380 6b d2 5a be 06 fa 43 3e 75 59 ea bd 90 f6 ec 3d
       -0.2136933 0.19138345 -0.11442844 0.115704656
000390 7a 12 1f be 61 c6 0d 3e 90 76 1c 3e d8 03 96 3e
       -0.15534392 0.13845207 0.15279603 0.29299808
0003a0 d8 4b 7a 3e 1c 23 64 be a2 a8 2c 3e de b4 3d 3e
       0.24442995 -0.22279018 0.16861203 0.18526027
0003b0 c4 4b 92 be c7 5b f1 bc f6 09 72 3e 47 bc a7 bd
       -0.2857343 -0.029462708 0.23636612 -0.08190208
0003c0 c1 43 5e 3d ae 9f 89 be 1f bf b0 3d 9a 32 9b 3d
       0.054263834 -0.26879638 0.086302035 0.07578011
0003d0 cd 9b 4e 3e ce e5 4a 3e ea b9 60 3e 56 ab 3a be
       0.20176621 0.19814226 0.2194592 -0.18229422
0003e0 02 c2 71 be ac 15 75 3e aa ec 80 be ef 55 66 3e
       -0.23609164 0.23934048 -0.2518056 0.22493719
0003f0 35 eb 55 3e cb 30 3a be 91 0c 6c 3d ea ff 82 3e
       0.20890506 -0.18182676 0.05762917 0.25585872

fc2.bias f4 [10]
000000 f5 10 94 bd 4f 44 05 3f 2c 22 35 be c5 83 0f be
       -0.07229797 0.52057356 -0.17688817 -0.1401511
000010 e0 d7 85 bd dc 07 2f 3c 41 27 75 bd 0a 38 6e bd
       -0.065353155 0.010683026 -0.05985189 -0.05815891
000020 e0 b5 d9 3d 7c ec 73 bd
       0.10630393 -0.0595517
