examples/pytorch_example/dlwpt_code/data/p1ch7/birds_vs_airplanes.pt (torch, 67271 bytes, 10 tensors)

conv1.weight f4 [32, 3, 3, 3]
00000000: 6bbd fc3c 78b5 3dbe 5087 cabd cfea 8c3d
00000010: 3909 0bbe 0a4a b83d 544f bc3d 9fc6 34be
00000020: 2e24 3e3c 8fed 2f3e 35ec a63d 8333 523d
00000030: 51cf cabd 1366 8bbd 4d0e 573e aed7 17be
00000040: 950e 613e 14cb 293e b6d9 5cbe ce13 1cbd
00000050: a23d 1d3d 0357 493d 362e cf3d 430b 073c
00000060: 72df 47bd fe73 46be 8896 a9bd ab52 4ebd
00000070: caf2 093e e73e 373e 1564 eebc fc96 e03d
00000080: 09f9 d73d eab6 12be a07f 363e 6ec4 02be
00000090: 81c9 283d ddb7 523c c2c7 9ebd ea3a ea3d
000000a0: c1f0 1a3e 2c4b eb3d 840d 80be c6a3 2dbe
000000b0: c7d2 10be 8564 fbbd 2734 f73c f545 cdbd
000000c0: ff43 b53d 0dbc 86bd ed7f 15be 0d0d 2cbc
000000d0: 0479 473e 4624 2abe ce94 40be 7187 b43d
000000e0: fe25 0e3e 06c3 09be f438 9b3d 10ca e7bd
000000f0: f3c3 35be f1cf 33be 1862 2abe c793 463e
00000100: 496a ec3d 78d5 103e cafb d3bd 3f92 eebc
00000110: 6acc 1c3c 0526 a93d fc5d 1dbe efdc 2bbe
00000120: dbdb 3b3e 46ef 0c3d eb36 13be 76f1 833e
00000130: 232f c2bc fed2 9b3d 72e2 0c3e 71c4 eebd
00000140: 6e65 b83d c900 843b 47d5 b0bd 8d08 3ebe
00000150: febe 53be b0bd b4be ad0c 17be 86c9 ce3c
00000160: 2831 24be 7dbb e0bd 7e2e bfbc f2de 13be
00000170: f97b 303e ef8e 5fbb 9161 3b3d 5322 153e
00000180: 7cf1 363e 7072 163e 0ff0 c8bd 1176 a23d
00000190: b9f4 8bbd 8866 6e3e ca37 953e 1d1d 4c3e
000001a0: 00b1 933e fe0a d73c b9a5 debd 0882 9c3e
000001b0: 15fe 2f3e f902 17be 16e4 9d3a 81d2 05bd
000001c0: c79d 3ebe 5d3b 6ebe afff c8bd fd68 a2bd
000001d0: dd52 7bbe 6a51 6c3d 1fff 1f3e deec a03d
000001e0: db97 ef3d f6b8 103e f53b 9b3d 80fc 733e
000001f0: c735 263e 5006 7fbe 3dc3 613e c9a0 5bbe
00000200: ea83 873c 6f84 d8bd 16c9 34bd 35c1 25be
00000210: 17d1 543e 49ba 44be b50e 5abe 35f1 1fbc
00000220: 1ccc 8a3d 753e 35bc 06f7 c3bd bb7f 7b3d
00000230: dad8 b7bd ccd7 873d 67e6 743e 9656 613e
00000240: 7a5d 453b 9f2d 3d3d f599 7cbe e98e c53d
00000250: 32b0 003e 5d3a a3bd 0dfd 1b3e f168 5abd
00000260: 0429 223e a148 0a3e cefc 22be e7a0 91bd
00000270: 5212 6a3d 430b 0c3e c2ed 433e aa99 b7bd
00000280: c30c 7d3e 6d2c 6a3d ac1c 6dbe 9ea7 bb3d
00000290: 44cc 2dbe e3b4 0e3e 45aa 8a3e ed6f 483e
000002a0: 53e6 b7bd 2567 2e3e e9e4 843a 1e78 38be
000002b0: ead6 22be a6a3 6fbd e068 193e 8728 9abd
000002c0: 7001 80bd 3bf2 40be 68a4 ae3d 071d 893e
000002d0: 96e0 b6bd dac6 a6bd 832f 33be 0a18 95bd
000002e0: d983 393e 41bc 9abc 49fd 73bd bc5f 893c
000002f0: 8a7b 603c 0b70 2ebd 356b 403c 325e d63d
00000300: a246 483e 1d50 e33d 2e41 f9bd 2303 6ebe
00000310: 24a7 223c c812 503e c72a 44be 8fc6 14be
00000320: d300 533d 5cb4 3d3d f65b 1bbe 77d7 b5bd
00000330: f782 3dbe d9ac c63d 9f9b 213d c4cd 283e
00000340: 5506 3c3e f756 68be dcba 293e 83b9 1e3e
00000350: 4dff 03be 5ed5 07be 9c47 c33c d347 683e
00000360: 0853 ea3d f7c2 383e f14d 1b3c 6707 b63d
00000370: eae0 233e 9b55 8f3b f758 713d 4b75 09be
00000380: 2de3 703d 4bd5 2a3e 5540 e1bb 1f42 2e3e
00000390: 3c3d 653c 9150 6f3e b0ec 013c 9ea6 1fbd
000003a0: f97c 3fbc 3325 06be e7be 4abd c9ee f23d
000003b0: 3185 023e eada 41bd 1731 f2bb a994 953d
000003c0: 2086 d63d c947 bb3d 0665 4dbe 098a bf3d
000003d0: 3d63 b73c bdf5 293e 003f e6bd 0622 55bd
000003e0: 0f66 1a3b 292b d4bd 249a 6abe 072b 35be
000003f0: ce7f 64bd 0d2e febd f0e8 523e f059 083e
0.03085204 -0.18526256 -0.0988909 0.06880724 -0.13577737 0.08998497 0.09194818 -0.17653893
0.011605306 0.17180465 0.08150522 0.051318657 -0.09902824 -0.068065785 0.21001549 -0.14828369
0.21978219 0.16581374 -0.21567425 -0.038104825 0.038388856 0.049155246 0.10116236 0.008242431
-0.04879708 -0.19380185 -0.08280665 -0.050371807 0.13471523 0.17895089 -0.029100457 0.10966298
0.105455466 -0.14327589 0.17822123 -0.12770244 0.041207794 0.012861219 -0.077529445 0.11437018
0.15130903 0.11488947 -0.25010312 -0.16957006 -0.14142905 -0.12275032 0.030176235 -0.10023109
0.0885086 -0.065788366 -0.14599581 -0.010501158 0.19479758 -0.166154 -0.18806764 0.08814896
0.1388168 -0.13453302 0.07579222 -0.11317837 -0.1775053 -0.17559792 -0.16638982 0.1939231
0.1154371 0.14143932 -0.10350759 -0.02912247 0.0095702205 0.08259205 -0.15367883 -0.16783498
0.18345587 0.034407876 -0.14376418 0.25770158 -0.023704117 0.07608603 0.13758257 -0.11658562
0.09003721 0.004028414 -0.086344294 -0.1855795 -0.20678326 -0.3530097 -0.14750929 0.025242578
-0.16034377 -0.109732606 -0.023337599 -0.14440516 0.17234792 -0.0034112295 0.045747343 0.14563875
0.17865556 0.14692092 -0.098114125 0.07932676 -0.068337865 0.232813 0.29144126 0.19932981
0.28845978 0.026250359 -0.10871453 0.30567956 0.17186768 -0.14747228 0.0012046124 -0.032671455
-0.18614875 -0.23264833 -0.09814393 -0.07930181 -0.24543329 0.05769483 0.15624665 0.07857679
0.11698886 0.14133057 0.07579795 0.2382679 0.16231452 -0.24904752 0.22047134 -0.21448053
0.016542394 -0.10572135 -0.044137083 -0.16186984 0.20782886 -0.19211687 -0.21294673 -0.009762098
0.06777212 -0.011062254 -0.095686 0.06140111 -0.08976908 0.06632957 0.23916017 0.22005686
0.003011553 0.046186086 -0.24668105 0.096463986 0.12567213 -0.07970116 0.1523325 -0.053322736
0.15835959 0.13504268 -0.1591675 -0.07110768 0.057146378 0.13676171 0.19133666 -0.08964856
0.247119 0.057171274 -0.23155469 0.0916283 -0.16972452 0.1393619 0.2708303 0.19573946
-0.08979478 0.17031534 0.0010139021 -0.18014571 -0.15902296 -0.058505677 0.14981413 -0.07527261
-0.06250274 -0.18842404 0.08527452 0.2677996 -0.08929555 -0.08143397 -0.17498593 -0.07279976
0.18116702 -0.018888595 -0.059567723 0.016769283 0.013701329 -0.04258732 0.01174431 0.10467185
0.19558194 0.11099265 -0.12170635 -0.23243384 0.009927545 0.20319664 -0.19156943 -0.14528869
0.051514458 0.046314582 -0.15171799 -0.08878987 -0.1850699 0.09700937 0.039455052 0.16484743
0.1836179 -0.22689424 0.16575187 0.15500455 -0.12890358 -0.13264987 0.023837857 0.22683649
0.11441618 0.18043123 0.009479032 0.08888131 0.16003767 0.0043742186 0.058922734 -0.1342365
0.0588104 0.16682927 -0.006874124 0.1701741 0.01399165 0.23370577 0.007929966 -0.038977258
-0.011687511 -0.13100128 -0.049498465 0.11861951 0.12746121 -0.047327913 -0.007391106 0.07303745
0.10474801 0.09144551 -0.20058069 0.093525 0.022386188 0.16597648 -0.11242485 -0.0520344
0.0023559367 -0.10359795 -0.22910362 -0.17692195 -0.055785947 -0.12411127 0.20596671 0.13315558

conv1.bias f4 [32]
00000000: de12 493e 514b 61be 1a78 093e d592 d8bd
00000010: 4e0c 2e3e 4aa2 df3d 7ccc 2abe f98b b8bc
00000020: 2b29 43be 10da 1f3e 3b66 31be 3f7e a73e
00000030: 8d5b 15be dbea 253e c458 8e3c 9824 37be
00000040: d111 643d 5a79 163e d4c9 06be 8490 93be
00000050: bdd7 253e e5d1 063e afba 17be 9d2c 86be
00000060: 81cf 823c 3456 a0bd 5cb6 e83d 240e 233d
00000070: d489 31be 9edd 5cbd 8288 df3d 0d3e d3bc
0.19636104 -0.22001387 0.13424721 -0.10574881 0.16996881 0.10919626 -0.16679567 -0.022527682
-0.19058673 0.15610528 -0.17324154 0.32713506 -0.14585705 0.16202872 0.017376311 -0.17885053
0.055681054 0.1469473 -0.13162929 -0.28821194 0.16195579 0.13166006 -0.14817308 -0.26205912
0.015968086 -0.07828942 0.11362907 0.039808407 -0.17337734 -0.053922288 0.10914709 -0.025786424

conv2.weight f4 [16, 32, 3, 3]
00000000: c1ce 29bd 34bb d9bd 198f adbc 58ad c83c
00000010: 75d9 50bd 5927 5dbd 7522 3bbd 4da3 143d
00000020: 270c 7b3b 9e0e 9e3b b167 bdbd 7679 38bc
00000030: 2d2c 9cbd 8faf 86bd 400e 3abd 1613 3f3c
00000040: b35c 873b f94c 1b3d 9a5d 9cbc 2df1 df3c
00000050: 5893 dd3d 7581 253d 3b0f 883c 2262 693d
00000060: 9c14 c0bd 2e6e bf3b a285 51bc 17ca 663d
00000070: 9546 953d d58d 7e3d afd7 60bc 109d 933d
00000080: d87c 33bc e382 9cbd cf18 8fbd 445d 62bd
00000090: 6083 fb3c e868 3fbd d59d 7abd 2e7a 8dbd
000000a0: de67 f4bd 8845 dbbd 403e 40bc 7da0 083a
000000b0: 0aea 9fbd 9418 17bc 79ae 83bc c980 89bc
000000c0: 3243 723d 347c 043d 4c6b 0a3d 0492 4cbd
000000d0: ebf3 8abd 53b8 c3bc 00ab c6bb b371 0dbd
000000e0: 1997 4f3c 0d4a 74bd 231c 26bc 1a8b efbd
000000f0: fb96 5bbd fbe0 dcbd 4da6 aabb b285 993c
00000100: 2204 593d 237e 013d aa06 683d af8c 3c3d
00000110: 5203 9f3d 06dc acbc c758 c7bb 694d 8bbc
00000120: f196 bc3c 135c 58bd 3713 aebd d671 d03c
00000130: 8d54 2d3d 245c b53d c060 0b3d 161f 113d
00000140: 1f2c f7bc e5dc 56bd d167 bfbc 4ae7 7cbd
00000150: 3043 afbd 4d91 babd 62f9 94bd 2786 4bbd
00000160: 0a62 373d 5792 06bd cb96 c3bc 1139 cfba
00000170: 80de 0638 2fc9 263c c132 13bd d792 5e3c
00000180: 7d63 7d3d 641e a1bd c606 a63c 3a5f ebbd
00000190: c2e1 54be 60d9 2cbe 0e32 3dbd a90d 81bd
000001a0: f42e 1639 248b 8fbd 91b5 2fbe 1272 42bd
000001b0: 17b5 d5bc 1ee8 703b b009 6a3d 6e36 e4bc
000001c0: 13d5 473d 16b1 873d 4f78 8abd e057 183d
000001d0: 3565 5cbd 070e 583d 6439 dbbd f820 e3bc
000001e0: 677c b43d d34a 78bc e7d6 b93d 5dc8 3f3d
000001f0: d8e6 7a3c 9dc4 bc3d c9f0 db3c a6cd ccbd
00000200: 5dac eabd cee0 8fbb f398 dfbd 20ed 2abd
00000210: 21c8 6dbb 4154 96bc 1839 c53c 7eb7 953d
00000220: f079 a43d 6978 8f3c 88ac d6bc 0aaa dd3c
00000230: 2beb 4a3c 0773 0a3d e560 dd3d 7dfe c2ba
00000240: 045b a43d 9f31 00bc 1e06 d4bb a133 e63c
00000250: c89f 0f3d 57c9 6fbd 87b5 853d 91de f5bb
00000260: f6b4 6cbd 35c5 233d e4fa f2bc 34ba 9b3c
00000270: 8972 ad3d 4826 92bc a34d 2fbd f57f ddbc
00000280: 91b2 843d d30d 153b da38 1cbd c33c 98bd
00000290: 0074 fb3c 6d89 4cbd 5baf 5fbd 455f 823c
000002a0: d721 21bd 03dc 1e3b b4c0 83bd b502 aebc
000002b0: 372f 30bd 1f04 c1bd fe7e 6abd 55d9 45bd
000002c0: dc9b adbc d1cf abbc 7520 6d3a fafd ed3a
000002d0: c9d4 7e3d 88f4 833d b327 c43c 3fd6 c83d
000002e0: 986c 31bb a28a 253d 962f 873c a35b acbd
000002f0: 17cc 19bd 1023 72bd e09c c2bd f100 03be
00000300: 5995 07bd 10e0 efbd 2d64 a4bb d396 a03d
00000310: 9cda 7abc c1e8 76ba 9825 9abd 1628 5fbd
00000320: 7d54 60bb fdd5 aebd f196 a5bd 44a1 fbbc
00000330: 2d2b 253d c36b f3bc d227 403d 754b e8bc
00000340: 9352 4abd d3af 8fbc 6ef6 f3bb 4fb4 bcbd
00000350: 2360 a9bd 74fb 75bd dffb dc3c 56e2 7abd
00000360: 7707 963b f347 1f3d 4871 a9bd 9e3d 9bbd
00000370: f4ee 90bd 966d 9abd 01dc 3d3d 2469 253c
00000380: a6cc 1fbc 5804 c1bc da17 3abd 4e4e b4bb
00000390: 776a 9ebd bd73 8cbd f718 78bd 8ffc 613d
000003a0: 39bc c73c c6f7 b13c f944 023c e72a 25be
000003b0: c400 2abe c556 a1bc 2b38 09be a20b ecbd
000003c0: cf83 6e3d 6fad 813d a29c 0cbd c867 fabc
000003d0: 819a 84bc 4f01 8d3c 025e 153c dea3 1dbd
000003e0: 915a 293d 6604 5bbd 8eea cfbc 3b5f feba
000003f0: a642 bcbd 4b96 7abd 0c4b d5bd d8dc 00be
-0.04145694 -0.10631409 -0.021186398 0.02449672 -0.050988633 -0.053992603 -0.045687158 0.03628855
0.0038306804 0.00482352 -0.09248293 -0.011259427 -0.07625613 -0.06576454 -0.045423746 0.011662265
0.0041309237 0.037915204 -0.019087601 0.027336681 0.10819119 0.040406663 0.016608825 0.056978352
-0.09378931 0.005841992 -0.012788208 0.05634507 0.07288853 0.06214698 -0.013723298 0.07207692
-0.010955058 -0.07642152 -0.06987154 -0.055264726 0.030702293 -0.046730906 -0.061185677 -0.069080696
-0.119338736 -0.107066214 -0.011733592 0.0005211903 -0.07808311 -0.0092221685 -0.016074406 -0.016785042
0.059146114 0.03234501 0.033793733 -0.04994394 -0.06784805 -0.023891604 -0.0060628653 -0.03453226
0.012670302 -0.059640933 -0.010138544 -0.116964534 -0.053610783 -0.10785099 -0.005207813 0.018740509
0.052982457 0.031614434 0.05664698 0.046032604 0.07764305 -0.02110101 -0.006083581 -0.017004685
0.023021193 -0.052822184 -0.08499759 0.025444906 0.042316962 0.08855465 0.034027815 0.035430036
-0.030172406 -0.052456755 -0.023364933 -0.061744012 -0.08557737 -0.09109745 -0.072741285 -0.049688485
0.04477123 -0.032854404 -0.023875615 -0.0015809854 3.215531e-05 0.010179802 -0.035937075 0.013584814
0.061862458 -0.07867125 0.020266902 -0.114927724 -0.20789245 -0.16879797 -0.046190314 -0.063014336
0.00014322606 -0.07008961 -0.17159106 -0.047472067 -0.026087327 0.0036759446 0.057138145 -0.027857985
0.048787188 0.06625573 -0.06761228 0.03719318 -0.053807456 0.052747753 -0.10704306 -0.027725682
0.0881279 -0.015154558 0.090741925 0.04682194 0.0153138265 0.092171885 0.026848214 -0.10000162
-0.11458657 -0.0043908125 -0.109178446 -0.041730046 -0.0036282616 -0.018350722 0.024075076 0.07310389
0.0803107 0.01751347 -0.026205316 0.02705862 0.01238517 0.033801105 0.10809497 -0.0014876869
0.08025172 -0.007824331 -0.006470456 0.02810079 0.03506449 -0.058541622 0.06528764 -0.0075033386
-0.057789765 0.039982993 -0.02966065 0.019009687 0.084691115 -0.01784052 -0.04279865 -0.027038554
0.06479371 0.0022743836 -0.038140155 -0.074334644 0.030694962 -0.049935747 -0.05461059 0.015914569
-0.039338913 0.0024240024 -0.064332396 -0.021241525 -0.043013778 -0.09424614 -0.057250015 -0.048302967
-0.021192484 -0.020973118 0.0009045669 0.0018157356 0.062214646 0.06443125 0.023944711 0.09806489
-0.0027072784 0.040415414 0.016502183 -0.08415916 -0.03754815 -0.05911547 -0.09502578 -0.12793328
-0.033101413 -0.117126584 -0.0050168247 0.078412674 -0.01531091 -0.00094188383 -0.07526702 -0.05448159
-0.0034230046 -0.08536909 -0.080854304 -0.030716546 0.04032438 -0.02971447 0.046912976 -0.028356293
-0.049395155 -0.017539894 -0.007445148 -0.09214079 -0.0827029 -0.060054258 0.02697557 -0.061251007
0.0045785266 0.038886975 -0.0827356 -0.07580112 -0.07076827 -0.07540433 0.04635239 0.010095868
-0.009753382 -0.023561642 -0.045432903 -0.0055024987 -0.0773515 -0.06858013 -0.060570683 0.0551725
0.024381744 0.021724593 0.007951015 -0.16129647 -0.16601855 -0.019694695 -0.13400333 -0.11525656
0.05823117 0.06331908 -0.034329064 -0.030567065 -0.016186954 0.017212538 0.0091166515 -0.038486354
0.041346136 -0.05347099 -0.0253804 -0.0019407043 -0.091924 -0.061178487 -0.10414705 -0.12584245

conv2.bias f4 [16]
00000000: dc12 043d e481 c0bd 701e 24be f9bb fabd
00000010: 5577 16be c0eb 5b3d 8d21 8abd 22f7 bfb9
00000020: 80b2 69bd cd1b 3dbc 9870 b9bd 4fea a73c
00000030: 7ee9 48bd bad1 d1bd 2888 9e3c c3a2 90bc
0.03224455 -0.09399775 -0.16027236 -0.12242884 -0.14693959 0.053691626 -0.067446806 -0.00036614487
-0.057054996 -0.011542273 -0.09054679 0.02049747 -0.0490508 -0.1024508 0.019352034 -0.017655736

conv3.weight f4 [16, 16, 3, 3]
00000000: 373c 1d3d aa6d bebc a136 213d 2d78 8f3d
00000010: 0690 10bc 0035 f53d 7058 c03c 9770 de3d
00000020: 4108 063e 2940 723c 1f76 343c 2b09 923d
00000030: 65a0 303e 28a3 34bd f24e 1cbb d4ab 6e3d
00000040: aa07 953c 2cfb 42bd b759 483d 632a d13d
00000050: 38c6 eb3d a817 99bd 73c3 9fbc 5544 21bd
00000060: e0df f53d 8991 54bd b785 33bc 4fbb 76bd
00000070: 6fe4 bf3b 5b82 ad3c 7576 7c3d 3b52 85bd
00000080: 1142 c8bd 7b9a 363d 80b5 123c 1b59 b7bd
00000090: 49a0 1f3d 55d8 813c 1f40 e63d 8032 babc
000000a0: b814 963c 0da9 8c3d 78f2 6cbd 2ff7 d8bd
000000b0: 6daa 403d bca9 a8bd bacd 853d a70c 3e3d
000000c0: 318f acbc 7d51 953d 3b19 bcbc 2169 473d
000000d0: c73a 803d 63ac 623d 50bb 2b3d 67a1 a23d
000000e0: 30a6 83bd 4fc5 c0bd 0bc1 13bd a209 563b
000000f0: 2250 efbd 9b57 c3bd fc87 7dbd 59a7 8cbd
00000100: 9bd4 8b3d 3fb5 73bc 2c66 d63d 26d6 073d
00000110: cfb8 2cbc 5718 a7bb 4add 053c a085 51bd
00000120: 294e 953d 5461 fc3c da5b 1f3d 4319 873c
00000130: 4561 c33d 3477 4d3e a48f 0a3c 1252 06bd
00000140: 05e0 383d acfb 173d f333 55bd a72c 0b3b
00000150: 5c59 2a3d 3e55 013d f630 083e 1a61 33bd
00000160: bda2 1e3d 74bf 9f3d 60a4 56bd 4433 5c3d
00000170: 5cba 6c3d c4e3 1f3c ac6c ecbd dbd2 31bd
00000180: 201e 593c 8b16 363d eb83 b53c 9619 f4bd
00000190: 9f4a 7c3d 1383 3bbd 64ae c03d c6a6 09bc
000001a0: ea53 463d c077 b23b 2b86 083d b1d7 9c3c
000001b0: 43aa 5fbd cba6 cebc 00e1 833d 7d5d f13d
000001c0: 5d21 3b3d 7d93 213d 3a91 6b3d 734f dbbc
000001d0: 8fe8 e43d e1d7 45bd 47da 363d c728 81bd
000001e0: 35a3 85bd 369e f9bd 6673 2cbd e948 b33b
000001f0: c481 b2bd fb27 28be 5f74 ba3d 56e3 c4bc
00000200: 35b8 62bd 50da 54bd c5cb 77bd 8beb 2cbd
00000210: 2c82 7b3c 0fb3 783d 3cf1 a73d 925c b0bc
00000220: 328a 2bbd 812b 01bc 9cef 653d b57e 913c
00000230: ce17 303d ec43 f03d 0a4f 37bd d953 3e3d
00000240: 6274 073e 6d58 58bd 92b4 91bc 71ff 0e3d
00000250: 4c83 e6bd 2b06 49bb c4d8 6dbd 5e56 42bd
00000260: fb2d 9a3d 00e2 993d 0991 2e3e 7543 ea3d
00000270: 7903 663e e1fa e13d 043d 07bb 154d c93c
00000280: 816b debc 5db1 243c f058 5d3b b45f ab3c
00000290: a166 8dbd 8d85 fe3d 86aa 203d d193 4abd
000002a0: 7597 1bbc 0ada 743d 0605 6d3d f60d 653d
000002b0: fa15 14bd bcfb e43d 6e12 053d a829 1bbd
000002c0: 8865 ca3d 5781 20be afae aebd fc3e 293c
000002d0: 2bf8 b13d 57b2 5a3d c05e 7e3d 62e3 bfbc
000002e0: c598 9abc beb2 623d e2a7 f43b 0c66 0dbc
000002f0: 6a01 423b c5f2 eebd 069c f8bc fbcc f6bd
00000300: f167 a4bc f39f ff3d bb29 8bbd a3c5 43bd
00000310: 7d75 223d 325c 9a3d 58a2 45bb 82fb eebd
00000320: 8ef8 ab3d 97fb 72bd 32fb c73c c664 b03d
00000330: 0b06 bd3d 262f 993d 2cd1 a4bc 955d 90bd
00000340: 1ee9 5fbc 87c1 64bd d079 8d3d a30c c23d
00000350: ced2 c93d 8d52 f13c c181 3dbc 040b c93d
00000360: 4e26 88bd 59c9 5dbd fe3a 3ebd 9af2 dc3d
00000370: 2590 563d 5eb8 78bd 7aac c43d 7f06 043d
00000380: 18d1 fbbd 6102 f23c efe6 b13d d95a afbd
00000390: a2ff ac3d 65aa 083e 8fbe 933d e461 2b3d
000003a0: ab06 953a 2247 08be 7027 013d 56d5 0f3e
000003b0: 6164 183b 05cc ac3c ba11 7a3e fbd1 803d
000003c0: d949 fd3d 2232 4a3e 918d 033c a70f a4bd
000003d0: 4949 2a3d 07a4 23bd b74c 84b7 4751 afbd
000003e0: 17d3 133c 97a6 b2bd d95d 36be b1b2 3b3d
000003f0: 03af 633d 54f5 f4bc 3fc5 2f3c 66e4 5a3d
0.038387503 -0.023245651 0.03935874 0.070053436 -0.0088234 0.119729996 0.02347967 0.108613186
0.13089086 0.014785805 0.01101449 0.07130655 0.17248686 -0.04410091 -0.0023850766 0.058269337
0.018192131 -0.047602817 0.048913684 0.10213163 0.115124166 -0.07475215 -0.019502377 -0.039371807
0.120055914 -0.051896606 -0.010957173 -0.060237225 0.005856089 0.021180322 0.061636407 -0.06509825
-0.09778226 0.044580918 0.008954406 -0.089525424 0.03897122 0.015850225 0.11242699 -0.022729158
0.018320426 0.068681814 -0.057848424 -0.105940215 0.04703753 -0.08235499 0.0653338 0.046398785
-0.021064373 0.07290933 -0.02296125 0.048684243 0.06261211 0.055340182 0.041926682 0.07940941
-0.06428182 -0.09412634 -0.036072772 0.003265955 -0.11685206 -0.09538194 -0.061897263 -0.068678565
0.06827661 -0.014874755 0.104687065 0.033163212 -0.010542109 -0.005099337 0.008170435 -0.051152825
0.072902985 0.030808128 0.038905956 0.016491538 0.09540037 0.20065004 0.008457098 -0.032793112
0.045135517 0.037105247 -0.052051496 0.0021236332 0.041589126 0.031575434 0.13299927 -0.043793775
0.038729418 0.07800189 -0.052402854 0.05375983 0.057794914 0.009758893 -0.11544165 -0.043413978
0.013251811 0.044455092 0.02215763 -0.11918943 0.0615946 -0.0457793 0.09408262 -0.008401578
0.04841987 0.005446404 0.033331078 0.019145818 -0.054605734 -0.025226017 0.064394 0.117854096
0.045686115 0.039447296 0.057511546 -0.026771283 0.111771695 -0.04830158 0.04464176 -0.06306606
-0.0652527 -0.121883795 -0.04210224 0.005471338 -0.08716157 -0.16421501 0.09104227 -0.024034183
-0.055351455 -0.05196601 -0.060497064 -0.04221682 0.01535086 0.06071764 0.08200309 -0.021528516
-0.04187984 -0.007883907 0.056136712 0.017760614 0.042991452 0.11731705 -0.044753112 0.046466682
0.1322799 -0.052818704 -0.017786298 0.034911577 -0.11255512 -0.0030673842 -0.058068052 -0.047445647
0.07528301 0.07513809 0.17047514 0.11438648 0.22462262 0.110341795 -0.0020635733 0.024572888
-0.027150871 0.010052052 0.0033774935 0.020919658 -0.069043405 0.124278165 0.039225124 -0.049457375
-0.009496559 0.05977825 0.05786612 0.055921517 -0.03615377 0.11180827 0.03248828 -0.037881523
0.09882647 -0.15674339 -0.08529412 0.010329958 0.086899124 0.053392734 0.06210208 -0.023423854
-0.018871674 0.055346243 0.0074663023 -0.008630287 0.0029602894 -0.11667398 -0.030347835 -0.12050816
-0.020069094 0.1248168 -0.06795069 -0.047795903 0.039662827 0.07537116 -0.003015658 -0.11669065
0.083970174 -0.059321966 0.024411771 0.08612971 0.09229668 0.07479696 -0.020119272 -0.07049099
-0.013666419 -0.055848625 0.069079995 0.094750665 0.09854661 0.029458309 -0.01156658 0.09816554
-0.06647931 -0.0541471 -0.046442978 0.1078846 0.05238356 -0.0607227 0.0960321 0.032232758
-0.12295741 0.02954215 0.08686625 -0.0856225 0.084471956 0.1334625 0.072140805 0.041841403
0.0011369785 -0.13308385 0.03153175 0.14046225 0.002325319 0.021093378 0.24420825 0.062900506
0.12367601 0.19745687 0.0080293575 -0.08010798 0.041573796 -0.03995135 -1.577135e-05 -0.08560424
0.009022496 -0.08723181 -0.17809238 0.04582471 0.055586826 -0.029902138 0.0107281795 0.053440474

conv3.bias f4 [16]
00000000: 6e32 8d3c 4590 ccbd 11d7 37be 7451 4a3d
00000010: 75f2 d8bc e045 45bc f215 45bd 2440 c6bd
00000020: a92a 28be 6073 b3bd 721e 03be 002e 4abd
00000030: 2f5c 62be 379b 14be 8bb7 f1bc a78f 81bb
0.01723596 -0.09988455 -0.17953135 0.049394086 -0.0264828 -0.012040585 -0.04811663 -0.096802026
-0.16422524 -0.087622404 -0.12804583 -0.049360275 -0.22105478 -0.14512335 -0.029506465 -0.0039538923

fc1.weight f4 [32, 256]
00000000: d132 d3bc 6ac8 72bc dc31 083d 6e80 12bd
00000010: 7208 f53c 06d2 debc 9c61 983c 8a57 a13c
00000020: 8d03 cc3b 7c4c 74bd abe9 1d3c 389b 2e3d
00000030: 1d0b e13c 3b0a 413d de10 463d 7325 603c
00000040: 3c4e 843d 13ae 1e3d 6e94 56bc f175 843c
00000050: 942d 243d 81fd b23d 69b3 8a3d e734 233d
00000060: cf0f 6c3d 5341 163c 2822 823b 8468 22bd
00000070: 23eb 343d 1df7 9f3c 1ccc abbc 0020 3fbd
00000080: 94a3 773d c237 6f3d 71e9 3b3d dc25 57bd
00000090: 7024 2d3c 8a60 7b3d aa1c 8bbd e547 89bc
000000a0: 129f 9abc 4681 8a3c 18f5 c73c ca09 873d
000000b0: 8f97 7c3d 5b03 663c 3351 8a3d 2179 e13c
000000c0: 689b 8fbc 8228 2e3c 4514 c8bc ba58 703d
000000d0: b71d 56bc fd73 29bd 27b3 9f3b 171d e6bd
000000e0: de70 61bd 2fa3 48bc 1a78 38bd 0410 8b3c
000000f0: a621 95bd 7581 4f3d 3030 64bd a4df 103c
00000100: 98b5 84bd 8dd8 83bd 21f2 a93c c2ab 7dbd
00000110: 0a51 653d dee2 053d dcd5 8ebc 61bb 8abd
00000120: 0057 95bd c4aa abbd ff6e 75bd 068b 2e3c
00000130: 522b 47bd d6e6 31bc 902f de3b e2df fd3c
00000140: 3ded be3c 3360 833d ce76 2e3d 3231 963c
00000150: 6d74 cabc e9f3 023d d12e 80bd d7cc 4ebd
00000160: 3e15 b6bd fa78 c73b 9ad5 90bc 8286 5d3d
00000170: 2051 423d 8eb8 873c ae5c 6eba d993 0c3d
00000180: defb d2bc 467e 8d3d 8500 7cbc 7538 bfbc
00000190: c4f5 6abd 49b1 c6bd 8b0e a8bd b723 25bd
000001a0: c488 9ebd bb55 b33c ed4d a13d 17f1 b73c
000001b0: 02d2 84bc 9563 22bc 59bf 2c3d 1e32 803c
000001c0: 1fb7 8cbd d89e 8fbd 6166 1dbd 1817 96bc
000001d0: d862 6abd 99fc 6b3d d57a d2bb 82b1 afbd
000001e0: c8f9 ee3c c18b 28bc c1ef ae3d 21d3 763d
000001f0: 7fda b03c ca4d d6bb 2f10 753d 86c2 03bd
00000200: d520 4e3a 7d4e 963c 2b6c f83b 14ac 213c
00000210: 08ce dbbc d15d cabc 2206 b33d 33ed 6ebd
00000220: 9294 4abd 7546 603d c412 ebba 082e b43c
00000230: d94c b3bb 1943 06bd bdf1 1bbd 185f 1b3c
00000240: 4e06 1abd 7e57 9c3c 979d 80bc 8449 1ebd
00000250: 7c5f 1cbd d559 5bbd 921c 493a 6b33 cc3c
00000260: 276e c03c 7ef4 f6b9 2f2d 1b3d 21cf 833b
00000270: e35a 09bd 1598 f13b 686e 903c 360e 0a3c
00000280: 9e52 31bd 291e ee3c 6bcc 7f3d 00a2 b1bc
00000290: 2b24 403c caf1 cd3d 73b0 07bc 206e 6a3d
000002a0: 2040 8ebd 886c dc3b cba8 083c 000a 14bd
000002b0: ec92 263d 4556 cabb 811e 843d df1e 45bd
000002c0: 7889 683d ec20 203d db58 eebc 00c2 543d
000002d0: e6d3 313d 34d8 be3c 0314 073d a051 1dbc
000002e0: 29d9 6c3d 87b6 7d3c 5489 0e3d 7e52 d4bc
000002f0: 7501 303d 5ca2 ab3c 0f42 e03c bbc6 30bd
00000300: ca0a 9c3b 2a5e d2bc df61 9c3d e31a 033d
00000310: 0a12 763b cd80 27bd ff50 753d d27b 15bd
00000320: 2fa5 563d 5ca7 b839 88fe 293d 5b6a f93c
00000330: 9630 7c3d 8233 afbc 1e83 01bd da43 913d
00000340: dfa5 0fbd 339c 30bd b3f5 2d3d 8aea a53c
00000350: c6cc 19bd 9cec 12bc bdd6 bcbc 6cf3 40bc
00000360: 131b 86bc ce7a dbbb 6a1e 21bb a7e8 06bd
00000370: f509 df3c 317a bf3c 0ee3 e3bb 7da8 693d
00000380: 847e 523d 0d68 cb3d 2746 2fbc 6697 ff3c
00000390: ed09 9ebd df6a 2f3d 4d5b 9b3d 85ef f73c
000003a0: 7688 58bd 130a 9bbd 8314 42bd 346d 2e3d
000003b0: 4e4e e43a aba1 00bd 72f7 853b fdb8 66bd
000003c0: d0e4 883d 328b 0b3d 2d92 863c c21d 7a3d
000003d0: bd31 a6bc 4e39 8abc 8649 ae3c ed3d 8c3d
000003e0: 856e c5bd c6cf 55bc 1f6a 99bc cd4f dabc
000003f0: b476 0ebc 233a 023d 170b c23c 5b44 05bd
-0.025781067 -0.01481829 0.033250675 -0.03576701 0.029911254 -0.027199756 0.018601231 0.019695062
0.006226009 -0.059643254 0.00963823 0.042628497 0.02747112 0.047128897 0.04835593 0.013680804
0.064602345 0.03874023 -0.013096912 0.01616952 0.04008253 0.08739758 0.06772501 0.039845373
0.057632264 0.009170848 0.003971357 -0.039650455 0.044169556 0.019527012 -0.02097135 -0.046661377
0.060458735 0.058402784 0.045876924 -0.05252634 0.010567769 0.061371364 -0.067925766 -0.016757915
-0.018874679 0.016907346 0.024408862 0.06593664 0.061667975 0.014038886 0.06753769 0.02752358
-0.017530158 0.010629775 -0.024423728 0.058678366 -0.013068608 -0.04137038 0.0048736515 -0.11236017
-0.05503928 -0.012245937 -0.045036413 0.01697541 -0.072818086 0.05066057 -0.055710018 0.008842383
-0.06479949 -0.06437788 0.020745339 -0.06193138 0.055985488 0.03268706 -0.01743596 -0.06774021
-0.072919846 -0.0838218 -0.059920307 0.010653263 -0.048625298 -0.010858258 0.0067805722 0.030990545
0.023306483 0.06414833 0.04259377 0.018334005 -0.02471372 0.031970892 -0.062589295 -0.05048832
-0.088907704 0.0060874196 -0.017679978 0.054083355 0.047440648 0.016567495 -0.000909279 0.034320686
-0.025754865 0.0690885 -0.015380983 -0.02334235 -0.057363287 -0.09701783 -0.08205899 -0.040317263
-0.0774093 0.021891465 0.07876191 0.022453828 -0.01621342 -0.0099114375 0.04217467 0.015648898
-0.06870865 -0.07012719 -0.038427714 -0.018321559 -0.05722317 0.057613943 -0.006423334 -0.08578779
0.02917184 -0.010287226 0.08541823 0.060259942 0.021588562 -0.006540035 0.059829887 -0.032167934
0.0007863169 0.018347973 0.007581254 0.009867687 -0.026831642 -0.024702938 0.08741404 -0.05833168
-0.049458094 0.054754693 -0.001793467 0.021994606 -0.0054718074 -0.032778833 -0.038072336 0.009483121
-0.03760367 0.019084688 -0.015700145 -0.03864433 -0.038177 -0.053552467 0.0007671799 0.024926862
0.023490025 -0.00047102937 0.037884887 0.0040224944 -0.033533942 0.007372866 0.01763077 0.00842624
-0.04329168 0.029067116 0.062450808 -0.021683693 0.011727373 0.10055883 -0.008281815 0.05723393
-0.069458246 0.006726805 0.008341025 -0.03614235 0.04066746 -0.006174835 0.06451131 -0.048125144
0.056771725 0.039093897 -0.029095104 0.051942825 0.043414973 0.023296453 0.03297807 -0.00960198
0.057824288 0.015485412 0.034798935 -0.025918242 0.04297014 0.020951442 0.02737525 -0.043158274
0.0047620283 -0.025679667 0.07635855 0.032008063 0.0037547373 -0.04089432 0.059891697 -0.036495037
0.052403625 0.00035219907 0.041502506 0.030446222 0.061569773 -0.021386866 -0.031619184 0.0709302
-0.035070296 -0.043117713 0.042470645 0.020253439 -0.037548803 -0.008967545 -0.023051614 -0.011776786
-0.016370332 -0.006697989 -0.0024584779 -0.03293672 0.027226428 0.023373695 -0.0069545573 0.05704545
0.051390186 0.099319555 -0.010697878 0.031200122 -0.07716737 0.04282653 0.075857736 0.030265579
-0.052864514 -0.07570281 -0.047382843 0.042584613 0.0017418356 -0.03140418 0.0040883357 -0.056328762
0.066842675 0.034068294 0.016427124 0.061063536 -0.020287389 -0.016873028 0.021275293 0.06847749
-0.096402206 -0.013050025 -0.01872736 -0.02664938 -0.008695293 0.031793725 0.023686929 -0.032535892

fc1.bias f4 [32]
00000000: dd4a ed3c 5b5a 0a3c 9484 95bb 8971 1dbd
00000010: 8235 97bd 6c05 e43d 86dd 543d 788b bfbc
00000020: 5d1b 2ebd cb29 043d 76b1 b43c 33ea abbc
00000030: e6d7 cfbc 4d6c 053e 21b1 203c 7247 b83c
00000040: a16b bfbc 221a 513d cac2 c93c 581f 253d
00000050: b451 443c 5117 b63d 01dd a93d 7fc6 14bc
00000060: e5a5 85ba b783 283d a67e 823d bfe1 603d
00000070: 162e 7f3d 703f 0e3d 1df0 203d ad15 813d
0.028966362 0.008444394 -0.0045629237 -0.038438354 -0.07383253 0.11133847 0.051969074 -0.023381934
-0.042506564 0.03226642 0.022057276 -0.020985698 -0.025371503 0.13029595 0.009807856 0.022495005
-0.023366751 0.051050313 0.024629015 0.040313095 0.01198237 0.08891166 0.08294106 -0.009080528
-0.0010196535 0.041141238 0.063718125 0.05490279 0.06229981 0.034728467 0.03929149 0.063029625

fc2.weight f4 [2, 32]
00000000: d5ab 68be 2c16 7bbc 174a 55be 639b 8cbd
00000010: 5666 b23c fbef 423f e5ff a9bd 0005 0e3e
00000020: 0f10 c23d dad8 723d 3b41 203f 08d8 943b
00000030: a2f3 50bd 1a6e 0b3f 62b3 afbe d867 f23c
00000040: 0d93 bbbd d4a2 e1be 94c7 803e a7b4 b4be
00000050: a629 e4be 7436 afbe 77ee bc3e 9775 1ebe
00000060: 712c 943e 0524 b3be 81be f9be aefe 39bf
00000070: c87e b93e 04e7 0bbe c9cc a43e c875 083f
00000080: 9375 883e f84f 7cbb 30db af3e 5b8d b23e
00000090: 1899 ad3d 3e19 3bbf 4094 32be 1042 3e3e
000000a0: 1639 44be cf8f 123e 1f00 24bf da7f 1bbe
000000b0: cd81 5cbd 07b0 2bbf 96b2 003f facf d1bd
000000c0: 0231 febc 079a fe3e f047 d2be e062 4d3e
000000d0: cbea f63e c409 c33e 0668 afbe 14e3 cfbd
000000e0: ed78 44be 4d81 0c3f b46b 2b3f 925b 3b3f
000000f0: 92b2 91be 6b2a 923e 8261 1ebe e1e2 27bf
-0.22721799 -0.01532511 -0.20829044 -0.06865575 0.021777313 0.7614743 -0.08300761 0.13869095
0.09475719 0.059288837 0.62599534 0.0045423545 -0.051013596 0.54464877 -0.34316546 0.029590532
-0.09158907 -0.4406954 0.25152266 -0.35294077 -0.44563025 -0.34221232 0.36900684 -0.15474544
0.28940156 -0.34988418 -0.48778155 -0.72654235 0.3622954 -0.13662344 0.3218749 0.5330472
0.26652202 -0.0038499814 0.34346914 0.3487347 0.08476466 -0.7308539 -0.17439365 0.18579888
-0.19162402 0.14312671 -0.64062685 -0.1518549 -0.053834725 -0.6706547 0.502725 -0.102447465
-0.031029228 0.4972689 -0.4107051 0.20057249 0.48226008 0.38093388 -0.3425905 -0.101507336
-0.19186755 0.548848 0.66961217 0.731866 -0.2845655 0.28547987 -0.15466884 -0.65580565

fc2.bias f4 [2]
00000000: b157 353e f62c 32be
0.17709233 -0.17399964
